pit_stop_predictor/strat2/tire_stint_model_pytorch.pth (torch, 422238 bytes, 13 tensors)

lstm1.weight_ih_l0 f4 [256, 81]
0	0x3e3bab4f	0.18327068
1	0x3df39cb5	0.11895124
2	0x3e152455	0.14564641
3	0xbb843760	-0.0040349215
4	0xbb168dd0	-0.002297271
5	0x3e52b112	0.2057536
6	0xbdcb9e23	-0.099422716
7	0x3dc90452	0.09815277
8	0xbd4c0fc9	-0.04981974
9	0xbe3d12ef	-0.18464254
10	0x3d23b2bd	0.03996538
11	0x3f249b71	0.64299685
12	0x3d9dabd6	0.07698791
13	0x3e855cc1	0.26047328
14	0xbd076a8d	-0.0330606
15	0x3d0a9be7	0.033840086
16	0x3e52b169	0.20575489
17	0xbd584ae3	-0.052805793
18	0xbc2c82f9	-0.010529273
19	0x3e150ad3	0.1455491
20	0x3d9184e8	0.07105428
21	0x3df19798	0.11796492
22	0x3d21977f	0.03945112
23	0xbc70bd55	-0.014693578
24	0xbd5d7ef6	-0.054076158
25	0xbdd5d705	-0.10441402
26	0xbd9d2414	-0.07672897
27	0xbe054be0	-0.13017225
28	0xbda34401	-0.07971955
29	0xbd1dd951	-0.038537327
30	0x3e9ddf42	0.30834395
31	0x3ea56ea9	0.3231099
32	0x3e4b6584	0.19862944
33	0x3de3f553	0.11130776
34	0xbdfed10a	-0.12442215
35	0x3eb399de	0.3507833
36	0xbee2931f	-0.4425287
37	0x3e0af8f3	0.13571529
38	0xbe65a9b0	-0.22428012
39	0xbb32a963	-0.0027261607
40	0x3d5ef5fd	0.05443381
41	0xbc8d6c40	-0.017263532
42	0x3db5be13	0.088741444
43	0x9fb85184	-7.806189e-20
44	0x3e5523f5	0.20814498
45	0xbe5c9308	-0.21540463
46	0x3d956ed4	0.072965294
47	0xbddb9b6a	-0.10723002
48	0xbd8550bb	-0.06509539
49	0x3e0ee131	0.13953091
50	0xbe2c81c4	-0.16846377
51	0x3c8abe40	0.016936421
52	0x1c612f47	7.450736e-22
53	0xa5eb9354	-4.0865835e-16
54	0xa347ccf8	-1.08312154e-17
55	0x3c9cbc4c	0.019132756
56	0x1ccc61fb	1.3524915e-21
57	0x3d8372e9	0.06418402
58	0x1f8d783e	5.991475e-20
59	0x3e7185e1	0.23586227
60	0x1e812a4a	1.3675897e-20
61	0xbd28266a	-0.04105226
62	0x3e61cba9	0.22050346
63	0x3d3c1515	0.045918543
64	0xbdb02ba5	-0.086020745
65	0x3d90c490	0.07068741
66	0x3da9ba78	0.08287519
67	0x3d54f199	0.051988218
68	0xbc942d30	-0.018087953
69	0x3ded311a	0.11581631
70	0x3e9c22f4	0.30495417
71	0xbde568b3	-0.112016104
72	0x3e1eb95a	0.15500394
73	0xbb3cd3fb	-0.0028812874
74	0xbd84cf44	-0.06484845
75	0xbe21972c	-0.15780324
76	0x3d542844	0.051796213
77	0xbe99bf1c	-0.30028617
78	0x3d1cfbb8	0.038325995
79	0x3dcef94b	0.101061426
80	0xbe988b37	-0.29793712
81	0x3e9284b2	0.28616863
82	0x3de1efce	0.11032067
83	0x3e215d4a	0.15758243
84	0x3e5806d9	0.21096362
85	0xbe0b7a17	-0.13620792
86	0xbdc91d7b	-0.09820076
87	0x3d9e60fe	0.077333435
88	0xbb7a5ca0	-0.0038202181
89	0xbe183f18	-0.14867818
90	0x3d79f744	0.061026827
91	0xbeaf9e59	-0.34300497
92	0x3e6206e3	0.2207294
93	0xbe0e53ed	-0.13899203
94	0x3d28cd32	0.041211314
95	0x3e19ea96	0.15030894
96	0xbe369748	-0.17831147
97	0x3da4780d	0.0803071
98	0x3df0c834	0.11756936
99	0xbd017dbb	-0.031614047
100	0x3df2e1fe	0.11859511
101	0xbe4e70e7	-0.20160256
102	0x3d3f9cd5	0.046780426
103	0xbd397eee	-0.045287065
104	0xbe0edbe0	-0.13951063
105	0x3dadd030	0.08486974
106	0x3e49027b	0.19629852
107	0x3d5153e8	0.05110541
108	0x3ec05fc8	0.37573075
109	0x3c0b139a	0.00848856
110	0x3e23f945	0.16013058
111	0x3e0498c1	0.12948896
112	0x3e8df713	0.27727565
113	0x3e8f8a39	0.28035143
114	0x3e0199b2	0.12656286
115	0xbe1f967e	-0.15584752
116	0xbdddac2f	-0.10823857
117	0xbd5b1627	-0.053487923
118	0x3de0f37f	0.10983943
119	0xbe1c3089	-0.1525289
120	0x3d26acf2	0.040692277
121	0x3dd94225	0.10608319
122	0xbe5080a9	-0.2036158
123	0x3d92d0f2	0.071687594
124	0x1c257922	5.475048e-22
125	0xbdaa8e4f	-0.083279245
126	0x3e2646c2	0.1623793
127	0x3d705920	0.058678746
128	0x3e689d03	0.22716145
129	0x3da2a15a	0.079409316
130	0x3d9c0aa2	0.076192155
131	0x3bbb3667	0.0057132724
132	0x3d813cfa	0.063104585
133	0x229bf308	4.2270154e-18
134	0x9d5dd79e	-2.9360578e-21
135	0xa1cfa1b6	-1.406967e-18
136	0x3d3948d5	0.045235474
137	0xa4b3362a	-7.772063e-17
138	0xbdd9a96c	-0.10628018
139	0x1dcfd782	5.5015274e-21
140	0x3d3a095d	0.045419086
141	0x22ba18b0	5.044154e-18
142	0xbd1f952f	-0.038960632
143	0xbe220ef8	-0.15826023
144	0x3ddb7b5d	0.10716889
145	0xbdd53563	-0.10410573
146	0x3c58cd83	0.013232592
147	0x3b9918e6	0.0046721576
148	0x3c3176bb	0.01083153
149	0x3dd8c140	0.105837345
150	0x3e912ac8	0.28352952
151	0xbd35cb28	-0.044383198
152	0x3d68361f	0.05669224
153	0x3e029518	0.12752187
154	0xbd44a9a3	-0.04801334
155	0x3e3f101e	0.18658492
156	0x3c567184	0.013088588
157	0x3da724d7	0.081613235
158	0x3d97c7ed	0.0741118
159	0x3e200b57	0.15629326
160	0x3d979747	0.07401901
161	0x3df40962	0.11915852
162	0x3d967d82	0.073481575
163	0x3c9739fa	0.018460263
164	0x3d8d6135	0.069033064
165	0x3bb1a72a	0.005421539
166	0xbe801284	-0.25014126
167	0xbd51ca64	-0.051218405
168	0xbddbc0b3	-0.10730114
169	0xbd3a38da	-0.045464374
170	0xbe1cb968	-0.15305102
171	0x3e29b6eb	0.16573684
172	0xbe425930	-0.18979335
173	0x3ea26923	0.31720838
174	0xbe8902cf	-0.26759955
175	0x3e067543	0.1313067
176	0x3cd2ee11	0.025748285
177	0xbe1e7956	-0.15475973
178	0x3d382f84	0.04496719
179	0xbd6f9040	-0.058487177
180	0x3d3fc26c	0.046816275
181	0xbd00a4ad	-0.031407047
182	0xbe0857e9	-0.13314785
183	0x3e29aee7	0.16570626
184	0xbd8cb272	-0.06869973
185	0xbdddd07d	-0.108307816
186	0xbc8ef0da	-0.017448831
187	0x3e15a328	0.1461302
188	0x3e07a1fd	0.13245387
189	0xbdd084c5	-0.10181574
190	0xbe37385e	-0.17892596
191	0xbd846c96	-0.064660236
192	0x3def3f98	0.116820514
193	0x3deaf2e2	0.114721075
194	0x3dc52a8f	0.09627258
195	0x3e50b38f	0.20380996
196	0xbe04b8ad	-0.12961073
197	0x3ce3d072	0.027809355
198	0x3d0abd88	0.033872157
199	0xbc901522	-0.017588202
200	0x3adb6ad3	0.001674021
201	0x3ea7a91c	0.32746208
202	0xbd1902ee	-0.03735631
203	0xbc319d87	-0.01084078
204	0xb9298460	-0.0001616641
205	0x9d40adb7	-2.5500797e-21
206	0x3db37c25	0.08763913
207	0xbe1433f2	-0.1447294
208	0x3b938bdd	0.004502757
209	0xbda4d7ca	-0.08048971
210	0xbe38a46c	-0.18031472
211	0xbd312684	-0.043249622
212	0xbbe1949a	-0.0068841698
213	0x3e00da12	0.12583187
214	0x18c6cfda	5.1391677e-24
215	0xa1365998	-6.1782575e-19
216	0x2140e8a8	6.536005e-19
217	0xbe40cedc	-0.1882891
218	0x20cf086a	3.5072732e-19
219	0x3e12a9c4	0.14322573
220	0xa02a9fe1	-1.445246e-19
221	0x3e2a4535	0.16627963
222	0x9c431728	-6.4550017e-22
223	0xbd7d0cd5	-0.061779816
224	0x3e4430c3	0.19159226
225	0x3c46e2dc	0.012139048
226	0x3db21115	0.086946644
227	0x3e6ae9dd	0.22940774
228	0x3dc2a674	0.09504405
229	0x3e934407	0.28762838
230	0x3e2ad915	0.16684373
231	0x3e537909	0.2065164
232	0x3d8e41d5	0.0694615
233	0xbdf9e07e	-0.122010216
234	0x3d57a1bb	0.052644473
235	0xbc6530bd	-0.013988671
236	0x3e1b78e8	0.15182841
237	0x3efe41c8	0.49659562
238	0xbdbc898d	-0.09205923
239	0xbd4ebc9d	-0.050472844
240	0xbd654564	-0.05597438
241	0x3d4ded9c	0.05027543
242	0xbd4812db	-0.048846107
243	0x3d7f38e1	0.062310103
244	0x3e0c8341	0.13721944
245	0x3d0b723c	0.03404449
246	0xba572148	-0.00082065584
247	0x3da6f178	0.08151525
248	0xbd911ccf	-0.07085573
249	0xbe5caff4	-0.21551496
250	0xbe057b2b	-0.13035266
251	0xbe4af2b8	-0.19819152
252	0x3c433ec4	0.01191682
253	0xbe3bbd0d	-0.18333836
254	0x3e94d4c6	0.29068583
255	0x3d18f06b	0.037338655

lstm1.weight_hh_l0 f4 [256, 64]
0	0xbec4564c	-0.3834709
1	0x3c97ae42	0.01851571
2	0xbe12b0bc	-0.14325231
3	0x3eb178b6	0.34662408
4	0xbbe04d59	-0.006845158
5	0xbd5cb960	-0.053887725
6	0x3e8145d1	0.25248578
7	0x3ea2574d	0.3170723
8	0x3e523a75	0.20530112
9	0x3f003bc1	0.5009118
10	0xbe8905a4	-0.26762116
11	0x3e41afd4	0.1891473
12	0x3f12f11f	0.5739917
13	0x3db50859	0.08839483
14	0xbe6d97e7	-0.23202477
15	0x3e961808	0.2931521
16	0x3d9715e5	0.07377223
17	0xbe7d529b	-0.24738543
18	0x3df2ba2e	0.11851917
19	0xbdcb7dd5	-0.0993611
20	0x3ee0a59b	0.43876347
21	0xbe22d9bc	-0.15903372
22	0xbda036df	-0.07822966
23	0xbec916dc	-0.39275253
24	0x3eb6682c	0.35626352
25	0xbe08c29f	-0.13355492
26	0xbe6764ba	-0.22597018
27	0x3e23c052	0.15991333
28	0x3dbfc3cb	0.093635164
29	0x3db19680	0.08671284
30	0xbdccd6c6	-0.10001902
31	0xbdfabd4a	-0.12243135
32	0xbdc2c356	-0.095099136
33	0x3e09d130	0.13458705
34	0xbe1171f6	-0.14203629
35	0xbdf58f15	-0.11990181
36	0xbd12e47f	-0.035862442
37	0xbed29e70	-0.41136503
38	0xbe4723df	-0.19447277
39	0xbe7cef34	-0.24700624
40	0xbe4db872	-0.20089892
41	0xbe492ee4	-0.19646794
42	0xbe8042a2	-0.25050837
43	0xbe90d36b	-0.282863
44	0x3c356c8a	0.011073241
45	0x3e085721	0.13314487
46	0x3e00d09f	0.12579583
47	0xbdb8eb7e	-0.090292916
48	0x3e07bfe1	0.1325679
49	0x3e4ac894	0.19803077
50	0xbeb7162c	-0.35759103
51	0xbe3922fa	-0.18079749
52	0xbcd66150	-0.02616945
53	0x3dac221f	0.084049456
54	0xbdc432df	-0.095800154
55	0x3d44c8c1	0.048043016
56	0xbe75a17e	-0.23987386
57	0xbe22d1c8	-0.15900338
58	0xbec0b7f7	-0.37640354
59	0x3ebe1740	0.37127113
60	0xbae6d030	-0.0017609652
61	0x3e3825ce	0.17983171
62	0x3e07fa5f	0.13279103
63	0x3ecdd810	0.40203905
64	0xbd59e415	-0.05319603
65	0xbe1d3059	-0.15350474
66	0x3d469e7a	0.04849098
67	0x3e04e449	0.12977709
68	0x3dd2e29f	0.10297131
69	0x3dc159dd	0.09440968
70	0x3dd99e12	0.10625853
71	0xbc643717	-0.01392915
72	0xbdc295ab	-0.09501203
73	0xbe83d023	-0.25744733
74	0xbdcaddd7	-0.09905594
75	0x3ddd438e	0.10803901
76	0x3ec2f3e5	0.38076702
77	0xbd607671	-0.054800455
78	0x3dba0a6a	0.090840176
79	0x3d7f58a8	0.06234041
80	0xbe9f252b	-0.31083044
81	0x3eae2648	0.3401358
82	0x3db247a9	0.08705074
83	0xbd8857ea	-0.06657393
84	0x3d63aded	0.05558579
85	0xbdf34533	-0.11878433
86	0xbe8c59e9	-0.27412346
87	0xbcab90aa	-0.020943005
88	0x3e2dd587	0.16975985
89	0x3e2300d9	0.15918292
90	0x3b1f91d9	0.0024348407
91	0x3d738380	0.05945158
92	0xbe21bf2e	-0.15795586
93	0x3ca8257c	0.020525686
94	0xbd320567	-0.043462183
95	0xbd2d48ec	-0.04230587
96	0x3ea1fff8	0.316406
97	0xbdc77a18	-0.097400844
98	0xbcb3d71e	-0.021953162
99	0xbcb11622	-0.021616999
100	0xbe01f46d	-0.12690897
101	0x3e085b46	0.13316068
102	0x3e11fe16	0.14257082
103	0x3d1d41a5	0.03839268
104	0xbe52ddd4	-0.20592433
105	0xbd844c42	-0.064598575
106	0x3cd96156	0.026535671
107	0x3da7c069	0.08190996
108	0xba9e7a38	-0.0012090867
109	0xbdfc8c0a	-0.12331398
110	0xbe3abe6f	-0.18236707
111	0xbd53be42	-0.051695116
112	0x3d96ddc4	0.07366517
113	0xbc90b3c2	-0.01766384
114	0x3d3b2d30	0.04569739
115	0x3d7ca2d9	0.06167874
116	0xbd51efa8	-0.051253945
117	0xbe163fb0	-0.14672732
118	0x3d2c93d9	0.042133186
119	0x3de39900	0.11113167
120	0x3ed0f68c	0.408131
121	0x3d4db53a	0.05022166
122	0xbd9e0f2c	-0.077177376
123	0x3d97bcd1	0.07409061
124	0x3d3cb7ee	0.046073847
125	0xba362281	-0.00069478905
126	0xbda9db45	-0.082937755
127	0xbd66d514	-0.05635555
128	0x3da67ef7	0.08129685
129	0x3d261a2b	0.0405523
130	0xbd45237a	-0.048129536
131	0x3e35e5e9	0.17763485
132	0xbcf84e44	-0.030310757
133	0x3c81968d	0.015818859
134	0x3cbacc12	0.022802386
135	0x3d2188b8	0.039437026
136	0x3af02c78	0.00183238
137	0x3dacfd99	0.084468074
138	0xbdded1e4	-0.10879877
139	0x3d71611d	0.058930505
140	0x3e0583f2	0.13038614
141	0xbd26e612	-0.040746756
142	0x3c494205	0.012283807
143	0x3cb582f9	0.02215718
144	0x3c35ebf3	0.011103618
145	0xbd46d1a4	-0.048539773
146	0x3daf090e	0.08546649
147	0xbdd7d687	-0.10538965
148	0x3dfd11e8	0.12356931
149	0xbdcded3c	-0.100550145
150	0x3c8b610e	0.017014053
151	0x3d0b2c9a	0.033978082
152	0x3e11fd76	0.14256844
153	0xbdfdef56	-0.12399165
154	0xbdb70d0c	-0.08938035
155	0xbd6c0edc	-0.05763136
156	0x3e1372e0	0.1439929
157	0xbd184d96	-0.037183367
158	0xbe0e9264	-0.13923031
159	0x3d4f318d	0.050584365
160	0xbd52273a	-0.05130694
161	0x3beb656f	0.0071837227
162	0x3d775b90	0.060390055
163	0xbdc40d37	-0.09572833
164	0xbe2461cd	-0.16052933
165	0xbd6e2a16	-0.058145605
166	0x3d1ac7c1	0.037788156
167	0xbd9d1cc1	-0.076715
168	0xbe4ea6e8	-0.20180857
169	0xbdc7f2b0	-0.09763086
170	0x3cd141ae	0.025544014
171	0xbcc4beea	-0.024016816
172	0xbd77a5cf	-0.06046086
173	0xbc653c07	-0.013991362
174	0xbd16575d	-0.03670441
175	0x3d036421	0.032077912
176	0xbdc5b336	-0.096533224
177	0x3da49195	0.0803558
178	0xbdabf137	-0.083956175
179	0xbe32064b	-0.17385213
180	0x3dacf4aa	0.084451035
181	0x3c399f5c	0.011329498
182	0x3e22fcb5	0.15916713
183	0x3d2d2353	0.042270016
184	0xbe06a105	-0.13147362
185	0x3dcbd01b	0.09951802
186	0xbd0d8739	-0.034552786
187	0xbd1c47f2	-0.03815455
188	0xbe257ccc	-0.16160887
189	0x3d9a14a7	0.0752347
190	0x3d945961	0.0724361
191	0x3d936c67	0.071984105
192	0x3da15150	0.07876837
193	0xbba75e0c	-0.005107647
194	0xbdb623b2	-0.08893527
195	0x3e12e5ba	0.14345446
196	0x3d833bd2	0.06407894
197	0xbe2a9ac7	-0.16660605
198	0x3d97f919	0.074205585
199	0x3c825946	0.01591171
200	0x3d135f70	0.03597969
201	0xbd95587a	-0.07292266
202	0x3d7c5523	0.06160463
203	0xbe40d54a	-0.18831363
204	0x3d0afd44	0.03393294
205	0x3d5c629d	0.053804982
206	0xbd2d239b	-0.042270284
207	0xbdfb090a	-0.122575834
208	0xbc43bb82	-0.011946561
209	0xbdc60715	-0.096693195
210	0xbb05e26f	-0.0020429154
211	0x3d2e87bd	0.04260992
212	0xbcb18631	-0.021670433
213	0x3ca6a0d7	0.020340366
214	0x3d7827e0	0.060584903
215	0x3db39a7b	0.08769699
216	0x3df89527	0.121378236
217	0xbe29f5d3	-0.16597681
218	0x3ca42436	0.020036798
219	0xbd372d2b	-0.04472081
220	0x3d5ec629	0.0543882
221	0xbe2e1915	-0.17001756
222	0xbd25c78b	-0.040473502
223	0xbd27ff7f	-0.041015144
224	0xbdf91e30	-0.12163961
225	0xbc65bf0c	-0.0140226
226	0xbc423ba1	-0.011855037
227	0x3e0e124e	0.1387417
228	0xbe92c594	-0.28666365
229	0xbde95e49	-0.113949366
230	0x3ca682b4	0.020325996
231	0xbd08dd28	-0.033414036
232	0x3e5027fe	0.20327756
233	0x3d9dbe42	0.077023044
234	0xbd929f3e	-0.07159279
235	0xbbe71012	-0.0070514763
236	0xbd1f14cb	-0.03883819
237	0xbd628d49	-0.05531052
238	0x3e20196d	0.15634699
239	0x3e9d8da3	0.30772123
240	0x3d9021d6	0.07037704
241	0xbda43c56	-0.08019321
242	0xbd1fdd48	-0.03902939
243	0xbdfd2e03	-0.12362292
244	0x3e14f60e	0.14546987
245	0x3d2d911b	0.04237471
246	0x3d338a4e	0.04383307
247	0xbdc0a09f	-0.09405636
248	0xbdacf420	-0.08445001
249	0x3dff8559	0.12476606
250	0xbd25d76f	-0.040488657
251	0xbdd02006	-0.10162358
252	0xbcee11be	-0.029061195
253	0xbd8fae18	-0.070156276
254	0x3c6d293f	0.014475166
255	0x3dfd8114	0.12378135

lstm1.bias_ih_l0 f4 [256]
0	0x3ca5f347	0.020257605
1	0x3d5c66c9	0.05380896
2	0x3cfd5fe1	0.030929508
3	0x3e1d328b	0.15351312
4	0xbd241cbf	-0.040066477
5	0xb9b13174	-0.00033796916
6	0xbdb105b9	-0.0864367
7	0xbd91bad1	-0.071157105
8	0x3d9cf8d7	0.0766465
9	0xbe5b8c25	-0.2144018
10	0x3d91a165	0.07110862
11	0x3e2b44d6	0.16725478
12	0x3e3f0f03	0.1865807
13	0x3d8c696e	0.068560466
14	0x3ce55fc0	0.027999759
15	0x3d31e584	0.043431774
16	0xbd3d945e	-0.046284072
17	0x3d4f7e54	0.050657585
18	0x3d4057fd	0.046958912
19	0xbd9a00fb	-0.07519718
20	0x3db2b1fc	0.08725354
21	0x3d85dd2e	0.06536327
22	0xbe0a0213	-0.13477354
23	0x3b88624a	0.0041621076
24	0x3ccfc97d	0.025364632
25	0x3d0c96cd	0.034323502
26	0xbdd1f46f	-0.102517
27	0xbc91ffbc	-0.017822139
28	0x3dcc1a29	0.09965927
29	0x3d860f21	0.06545854
30	0x3df03069	0.117279835
31	0xbd3c5540	-0.04597974
32	0x3e76abc1	0.24088956
33	0x3c775859	0.015096747
34	0x3d1c6379	0.038180802
35	0x3e0586c4	0.1303969
36	0x3e867c1f	0.26266572
37	0x3d3a773b	0.045523863
38	0xbd0338a1	-0.032036427
39	0xbd931fb6	-0.07183783
40	0x3da6d8a7	0.08146792
41	0x3cba41fa	0.022736538
42	0xbd301407	-0.04298785
43	0x3dad5a14	0.08464447
44	0xbd391e9a	-0.0451952
45	0x3d850eaa	0.064969376
46	0x3e4acffb	0.19805901
47	0x3e17783f	0.14791964
48	0x3d48c3ad	0.049014736
49	0xbdb31f97	-0.0874626
50	0x3e0a3647	0.13497268
51	0x3e2559e2	0.16147569
52	0x3d8c7ff6	0.06860344
53	0x3da22402	0.07917024
54	0x3c3b83ed	0.011445028
55	0x3e71689c	0.23575062
56	0xbd2b1c01	-0.041774753
57	0x3da68822	0.08131434
58	0x3c162a07	0.009165294
59	0xbce365eb	-0.02775856
60	0xbd93ef22	-0.07223345
61	0x3d8c7d3c	0.06859824
62	0xbd6fab4f	-0.058512982
63	0x3da9de85	0.08294395
64	0xbe8975b2	-0.26847607
65	0xbdab85d3	-0.08375134
66	0xbe0d8d1b	-0.13823359
67	0x3dd4936a	0.103796795
68	0xbe100a62	-0.1406646
69	0xbda5bfd6	-0.080932304
70	0xbd9dcc51	-0.07704986
71	0xbe1c4ba0	-0.15263224
72	0xbced943c	-0.029001348
73	0xbeca53a7	-0.39516947
74	0x3bc08373	0.005875045
75	0xbdbf81fb	-0.09350964
76	0xbda76255	-0.08173052
77	0xbca9dd58	-0.020735428
78	0xbe378606	-0.1792222
79	0x3c37cb16	0.011217853
80	0xbd8f0d52	-0.069849625
81	0xbd1b32c0	-0.037890196
82	0x3d9c8334	0.076422125
83	0xbd30ce31	-0.04316539
84	0xbe6cfa29	-0.23142304
85	0xbdbd2de9	-0.09237272
86	0xbdc7bf33	-0.09753265
87	0xbe2b4868	-0.1672684
88	0xbe139f54	-0.14416248
89	0xbaad3e24	-0.0013217372
90	0x3dbabe07	0.09118276
91	0xbd1befdc	-0.038070545
92	0xbe55c1aa	-0.20874658
93	0x3d79c211	0.06097609
94	0x3c453f86	0.012039071
95	0xbe206d24	-0.15666634
96	0xbdc1d98c	-0.09465322
97	0xbc6be9e1	-0.014399023
98	0xbde6e2ba	-0.112737134
99	0xbd8f72cb	-0.07004317
100	0xbe8fceb9	-0.28087404
101	0xbe56c666	-0.2097412
102	0xbd399f36	-0.04531785
103	0xbcddd862	-0.027080718
104	0xbe1d9037	-0.15387045
105	0xbe47283d	-0.19448943
106	0xbc9cb896	-0.019130986
107	0xbe81b8e3	-0.2533637
108	0xbe194ed8	-0.14971483
109	0xbdca8f0d	-0.09890566
110	0xbe9cddc2	-0.30637938
111	0xbe8f4574	-0.27982676
112	0xbdb5ffa6	-0.08886652
113	0x3e00e1a7	0.1258608
114	0xbdf1b690	-0.11802399
115	0xbdfd141c	-0.12357351
116	0xbe174075	-0.14770682
117	0x3ceb05ab	0.028689226
118	0xbd8018b3	-0.06254711
119	0xbe2e0edf	-0.1699786
120	0xbeaf1098	-0.34192348
121	0xbd72e906	-0.05930426
122	0xbe90dedf	-0.28295037
123	0xbe009f15	-0.12560685
124	0xbd2c8e0f	-0.042127665
125	0xbe46fe0b	-0.19432847
126	0xbdbaa6b2	-0.09113826
127	0xbe049e99	-0.12951125
128	0x3de4833f	0.11157846
129	0xbd824017	-0.063598804
130	0xbce95060	-0.028480709
131	0xbe5621d5	-0.20911343
132	0x3d9a8b68	0.07546121
133	0x3d8f4505	0.06995586
134	0xbdd9aa29	-0.106281586
135	0xbe680195	-0.22656853
136	0xbd9adcbb	-0.07561632
137	0x3c90f475	0.017694691
138	0x3d476dbe	0.048688643
139	0xbdda8d07	-0.1067143
140	0xbdd00957	-0.101580314
141	0xbd51fea3	-0.05126823
142	0x3e010a67	0.12601624
143	0xbe4f097d	-0.20218463
144	0xbe0bee64	-0.13665158
145	0xbcd3d62a	-0.025858957
146	0xbe1e7de1	-0.15477706
147	0x3e32df44	0.17467982
148	0xbdb9a257	-0.09064167
149	0xbe371de4	-0.17882496
150	0x3d78cc30	0.060741603
151	0x3e3244c5	0.17409046
152	0xbc5872bf	-0.013210951
153	0xbe2cfce7	-0.1689335
154	0x3e4ef03a	0.20208827
155	0xbdb9faf9	-0.09081072
156	0x3b7071c1	0.0036688896
157	0xbe106390	-0.1410048
158	0x3c750afb	0.014956231
159	0x3dc4a92f	0.09602582
160	0xba957c5e	-0.0011404862
161	0x3d7edded	0.062223364
162	0x3ccdfdb7	0.025145395
163	0x3d4ccf68	0.050002486
164	0xbdb991de	-0.09061025
165	0x3dbf2f09	0.09335143
166	0xbdc27481	-0.094948776
167	0xbd489787	-0.048972633
168	0x3df97a93	0.12181582
169	0x3ddefaad	0.10887656
170	0xbddf5807	-0.10905462
171	0x3e13b5af	0.14424776
172	0x3d497ac5	0.049189348
173	0x3d3afccc	0.045651242
174	0xbca37869	-0.019954877
175	0x3c8e8ff6	0.01740263
176	0xbdb3e691	-0.087842114
177	0xbdcbdebe	-0.09954594
178	0x3dadcf01	0.084867485
179	0xbc4dca65	-0.012560462
180	0x3d708d82	0.058728702
181	0x3d729ac1	0.059229616
182	0x3db212d6	0.08694999
183	0x3acb5feb	0.0015516257
184	0x38e6998f	0.00010995857
185	0x3e0719ab	0.13193385
186	0x3e1ab33a	0.15107432
187	0xbdb1e1a0	-0.08685613
188	0xbdc231e9	-0.09482176
189	0xbe0c5150	-0.13702893
190	0xbd030a69	-0.03199235
191	0xbe5efec5	-0.21776874
192	0x3e153194	0.14569694
193	0x3d1f04fe	0.03882312
194	0xbd37815e	-0.04480111
195	0x3dcf16ab	0.101117454
196	0x3d50702d	0.05088823
197	0x3e0a7706	0.13521966
198	0x3d4acd0f	0.049511965
199	0xbb1b2b2a	-0.002367685
200	0xbd4fea03	-0.05076028
201	0x3cf08d3d	0.029364223
202	0xbcb15f77	-0.021651966
203	0x3da94f14	0.08267036
204	0x3c1620c0	0.009163082
205	0x3dfcb67b	0.12339493
206	0x3ce775c9	0.028254407
207	0x3d930ee3	0.07180574
208	0x3c615b78	0.013754718
209	0x3dc24b6e	0.09487043
210	0x3e0a69e0	0.1351695
211	0x3d4ada77	0.04952475
212	0x3e3ecd9c	0.18633121
213	0x3d9f0ba5	0.07765893
214	0x3e7e43bc	0.24830526
215	0xbd8ccd09	-0.06875045
216	0x3e0e64fa	0.13905707
217	0x3e564e70	0.20928359
218	0x3e018446	0.12648115
219	0x3e17e1b3	0.14832191
220	0x3e93cead	0.2886862
221	0x3d84a95f	0.064776175
222	0x3dc49db9	0.09600396
223	0xbd680ab8	-0.056650847
224	0x3e3b4738	0.18288887
225	0x3e2f98c2	0.17148116
226	0x3dfba094	0.12286487
227	0x3e4f2e18	0.20232427
228	0x3e895309	0.26821163
229	0x3de86159	0.113466926
230	0x3d9f95e9	0.07792265
231	0x3c625b17	0.013815663
232	0x3e2aefc5	0.16693027
233	0x3c5985d1	0.013276533
234	0x3dcf8d22	0.10134341
235	0x3e43d0ff	0.19122694
236	0x3e441ef4	0.19152433
237	0x3d5b08fa	0.053475358
238	0x3e151c81	0.14561655
239	0x3e963aec	0.2934183
240	0xbdad31f5	-0.08456794
241	0x3daaa05c	0.083313674
242	0xbe1ca25e	-0.15296313
243	0xbbb6fd78	-0.005584415
244	0x3e460d26	0.19340953
245	0x3d6cc1f6	0.057802163
246	0xbc0abd4a	-0.008467982
247	0x3d97d301	0.07413293
248	0xbd7be70d	-0.061499644
249	0x3e0110fd	0.12604137
250	0x3b64802b	0.0034866433
251	0x3e033dc4	0.1281653
252	0xbd367f6a	-0.044555105
253	0x3cf3f050	0.029777676
254	0x3d167331	0.03673095
255	0x3c20811c	0.009796407

lstm1.bias_hh_l0 f4 [256]
0	0x3d66ab52	0.056315728
1	0x3e2b7708	0.16744626
2	0x3d8e3010	0.06942761
3	0x3e1ce3e9	0.15321316
4	0x3cd41bf5	0.025892237
5	0x3d2b047b	0.04175232
6	0x3c86d0b5	0.016456941
7	0x3d087731	0.033316795
8	0x3db5d66f	0.088787906
9	0xbc8b3ae0	-0.016995847
10	0x3d9459fc	0.07243726
11	0x3da85fe9	0.082214184
12	0x3e8d70fc	0.27625263
13	0x3bb109dd	0.005402787
14	0x3d3739c4	0.044732824
15	0x3cb86812	0.022510562
16	0xbe8bbe3c	-0.27293575
17	0x3d635448	0.0555003
18	0xbd75a01f	-0.059967156
19	0x3d89159e	0.06693576
20	0x3c69b08d	0.014263284
21	0x3d8d6d8e	0.069056615
22	0xbe155ad9	-0.14585437
23	0x3df545ac	0.119761795
24	0xbcaef148	-0.021355286
25	0x3d7c6723	0.061621796
26	0x3d16e6a7	0.03684106
27	0x3e101266	0.14069518
28	0x3e79f60c	0.24410266
29	0x3e01dd87	0.12682162
30	0x3dc756f6	0.09733383
31	0x3d6246e3	0.055243384
32	0x3e7dbee4	0.2477985
33	0x3df2543c	0.11832473
34	0x3e33f79f	0.17574929
35	0x3b950e0d	0.004548794
36	0x3e801831	0.25018457
37	0xbc0833a6	-0.008313095
38	0x3e4fa35b	0.20277159
39	0xbd38017a	-0.044923283
40	0x3d822149	0.06354005
41	0x3dd83e0f	0.10558712
42	0x3dda065d	0.10645745
43	0x3e4080aa	0.18799081
44	0x3dfc25b6	0.1231188
45	0xbd27c472	-0.04095883
46	0x3e85d39c	0.26138008
47	0x3e51e945	0.20499142
48	0x3d99308d	0.074799635
49	0x3e02911d	0.12750669
50	0x3d9e9d5f	0.0774486
51	0x3d529746	0.051413797
52	0x3dd6de99	0.10491676
53	0x3d8d13c6	0.06888537
54	0x3da05f0b	0.07830628
55	0x3dd52701	0.1040783
56	0xbe15eae1	-0.1464038
57	0xbc692c7d	-0.014231798
58	0x3b9b56fd	0.0047405944
59	0xbdc29e07	-0.095027976
60	0x3d6ff89a	0.058586694
61	0xbd9f1149	-0.07766969
62	0x3d7f41bd	0.062318552
63	0x3d9cc4cd	0.07654724
64	0xbeb3d583	-0.35123834
65	0xbdf32bde	-0.118736014
66	0xbca69a9d	-0.020337397
67	0x3d251d5b	0.0403112
68	0xbdd4325a	-0.10361166
69	0xbdb9ac07	-0.09066015
70	0xbe22d4dd	-0.15901513
71	0xbd3cbbfd	-0.046077717
72	0xbdf9aac2	-0.121907726
73	0xbebe410e	-0.37159008
74	0x3dab89f5	0.083759226
75	0xbdae3779	-0.08506674
76	0xbc3edb4b	-0.011648963
77	0xbdf8c3a1	-0.12146688
78	0xbd865e13	-0.06560912
79	0xbdcfd1c4	-0.101474315
80	0xbe61ef58	-0.22063959
81	0x3c657003	0.014003756
82	0x3d436797	0.047706213
83	0xbdc93dfa	-0.09826274
84	0xbe72c75f	-0.23708867
85	0xbe25ed39	-0.16203775
86	0xbe2c18ca	-0.16806331
87	0xbe1ca183	-0.15295987
88	0xbddd6df2	-0.10811986
89	0xbdd5b37d	-0.10434625
90	0x3cc25d14	0.023726024
91	0xbd0757cd	-0.033042718
92	0xbe05db72	-0.13071993
93	0xbe26e20f	-0.16297172
94	0xbd21ff59	-0.03955016
95	0xbd6b1ef7	-0.057402577
96	0xbd53a4a5	-0.05167069
97	0xbe48654a	-0.19569889
98	0xbc630ed4	-0.013858516
99	0xbde517df	-0.11186194
100	0xbe0a3c14	-0.1349948
101	0xbe23ca75	-0.159952
102	0x3cb5b823	0.02218253
103	0xbdeaab99	-0.11458511
104	0xbdf75815	-0.12077347
105	0xbe41b5a8	-0.18916953
106	0xbd77ffb1	-0.06054658
107	0xbe668ed2	-0.22515419
108	0xbe36a11b	-0.17834894
109	0xbc5627bd	-0.013070998
110	0xbe1a8ca6	-0.15092716
111	0xbddec32f	-0.10877072
112	0xbdc692a0	-0.09695935
113	0x3c8fdfb3	0.017562723
114	0xbdbb5c03	-0.09148409
115	0xbd986f2a	-0.07443078
116	0xbe037896	-0.12838969
117	0xbc8c0c90	-0.017095834
118	0x3cd2c992	0.025730882
119	0x3b7a6a62	0.0038210382
120	0xbe51d3f5	-0.20491011
121	0xbdf1c2f4	-0.118047625
122	0xbe0920a3	-0.13391356
123	0xbe0d6390	-0.13807511
124	0xbbf6335a	-0.007513446
125	0xbddcaf86	-0.10775666
126	0xbd98ca80	-0.07460499
127	0xbdc8d31f	-0.09805893
128	0x3d0d761d	0.03453647
129	0x3d9b0de2	0.07571007
130	0x3d413301	0.04716778
131	0xbe3644ea	-0.17799726
132	0x3c6a79e2	0.014311286
133	0xbbf6451e	-0.0075155636
134	0x3d89ba74	0.06725016
135	0xbe15ce0c	-0.14629382
136	0xbd555e74	-0.05209203
137	0x3e0e7ef2	0.13915613
138	0x3dfd0c6e	0.123558864
139	0x3b8a36cc	0.004217958
140	0xbd82f608	-0.06394583
141	0xbc33c5cc	-0.010972451
142	0xbdeb36df	-0.11485075
143	0xbe2f9695	-0.17147286
144	0xbdea2afe	-0.11433981
145	0xbe0a69d3	-0.13516931
146	0xbd5a7c71	-0.053341333
147	0x3e0bb7e2	0.13644364
148	0xbe69a1bd	-0.22815605
149	0xbe4fdae0	-0.20298338
150	0x3d6930ef	0.056931432
151	0x3d4911c4	0.04908921
152	0xbda38c95	-0.07985798
153	0xbcf6ef8d	-0.030143524
154	0x3d745369	0.05964986
155	0xbdcb801b	-0.099365436
156	0x3e01848f	0.12648223
157	0xbd64f9bc	-0.055902228
158	0xbd706fa1	-0.058700208
159	0xbca5ad2c	-0.020224176
160	0xbdf540d7	-0.11975258
161	0x3c1cc16f	0.009567603
162	0xbddbdc7c	-0.107354134
163	0x3de35e05	0.11101917
164	0xbdc1ba1d	-0.094593264
165	0x3dc1e2b4	0.09467068
166	0xbd92af0b	-0.07162293
167	0xbd85b5f8	-0.065288484
168	0x3df5595d	0.11979935
169	0xbd92e8e3	-0.07173326
170	0xbe1fde43	-0.1561213
171	0x3e0e21a5	0.13880022
172	0xbe194837	-0.14968954
173	0x3e2c300f	0.16815208
174	0x3ced4f31	0.028968425
175	0xbd70420a	-0.05865673
176	0x3c5b4011	0.013381974
177	0xbd5a8a23	-0.053354394
178	0xbd8c0ea4	-0.0683873
179	0xbca8d9ec	-0.020611726
180	0xbdbb9dd7	-0.09160965
181	0x3c0a58d0	0.008444026
182	0x3d905308	0.07047087
183	0xbd6b8a79	-0.057505105
184	0xbce6f8be	-0.028194781
185	0x3da537fb	0.08067318
186	0x3de125cd	0.10993538
187	0xbce2a6d9	-0.02766745
188	0xbc93239d	-0.017961318
189	0xbe37d7ae	-0.17953369
190	0x3d17691d	0.03696548
191	0xbe6e0f24	-0.23247963
192	0x3e022cae	0.12712356
193	0x3e18a55a	0.14906827
194	0xbd715628	-0.058920056
195	0x3d298700	0.04138851
196	0x3d8dc6e6	0.069227025
197	0xbdacb61b	-0.08433171
198	0x3e031307	0.12800227
199	0x3db1ea68	0.086872876
200	0xbcafa914	-0.021442927
201	0x3c04ef1e	0.008113651
202	0x3de3efea	0.11129744
203	0x3e3ede41	0.1863947
204	0x3d89501e	0.06704734
205	0x3cede993	0.02904204
206	0x3d595277	0.05305716
207	0x3dc732d1	0.09726489
208	0xbddd451c	-0.10804197
209	0x3e484fb7	0.19561659
210	0x3d6acbb5	0.057323176
211	0x3dfe8b0a	0.12428863
212	0x3d6b1597	0.057393637
213	0xbd9bc229	-0.076053925
214	0x3e8089c7	0.25105116
215	0x3dde6c23	0.10860469
216	0x3b3fecd7	0.0029285455
217	0x3dfd19ed	0.123584606
218	0xbd86d65e	-0.06583856
219	0x3cb188b2	0.021671627
220	0x3ea457c4	0.3209821
221	0x3db459dc	0.08806202
222	0x3e6854fa	0.22688666
223	0x3d06c85e	0.03290593
224	0x3e1cd945	0.15317257
225	0x3d8ca06a	0.06866534
226	0x3bc8fe75	0.0061338493
227	0xbd0d4d50	-0.03449756
228	0x3ebb1069	0.36535957
229	0x3e47ba98	0.19504774
230	0xbd0e8386	-0.0347934
231	0xbb0eb83f	-0.00217773
232	0x3df425e1	0.11921287
233	0x3d827ce9	0.06371481
234	0xbb9219bf	-0.0044586356
235	0x3e905bb7	0.28194973
236	0x3db0be79	0.0863008
237	0x3e1143ad	0.14185973
238	0x3d7f5b3d	0.06234287
239	0x3e3e0ffe	0.18560788
240	0x3c9ab45c	0.01888483
241	0x3c8d4ea4	0.017249413
242	0xbd415f2f	-0.047209915
243	0x3e1bb6e7	0.1520649
244	0x3e77f4bb	0.24214451
245	0xb92ec04c	-0.0001666557
246	0x3d2abcbc	0.041683897
247	0x3d2e5a07	0.042566326
248	0xbd0dce88	-0.03462079
249	0x3db51566	0.08841972
250	0x3d755bc9	0.059901986
251	0x3cbda31f	0.023149071
252	0x3d0d350f	0.03447443
253	0x3dba9634	0.0911068
254	0x3e3b71e1	0.1830516
255	0x3dfac833	0.12245216

lstm2.weight_ih_l0 f4 [256, 64]
0	0xbd8e2a6b	-0.06941684
1	0x3e0f9453	0.14021425
2	0x3d24624c	0.040132806
3	0x3dad206e	0.08453451
4	0x3af754dd	0.0018869896
5	0xbe2823a7	-0.1641985
6	0x3dcd1a85	0.10014824
7	0xbe0d9450	-0.13826108
8	0x3d311e0c	0.043241546
9	0x3e9a45e9	0.30131462
10	0x3c623ca7	0.013808406
11	0xbd2ad579	-0.04170749
12	0x3e36635f	0.17811345
13	0xbd25ae25	-0.04044928
14	0xbdd0f4b1	-0.10202921
15	0xbd8de264	-0.06927946
16	0x3e20c7d1	0.15701224
17	0xbed811b4	-0.42201006
18	0x3c99b3c5	0.018762479
19	0x3db42466	0.08796005
20	0xbc10d861	-0.008840651
21	0xbd07caa2	-0.03315223
22	0x3e837ed6	0.25682706
23	0x3d7c3c48	0.061580926
24	0x3e0b06a2	0.13576749
25	0xbe50f4f2	-0.20405939
26	0x3dacf4e7	0.08445149
27	0xbca441c0	-0.020050883
28	0x3ee27bbc	0.44235027
29	0x3d1815e9	0.03713027
30	0xbe67323b	-0.22577755
31	0x3c32f388	0.01092232
32	0xbee59e84	-0.448475
33	0x3d78bd90	0.060727656
34	0xbd4c17a4	-0.049827233
35	0x3deaa896	0.114579365
36	0xbeeab0a3	-0.45837888
37	0x3d7430e9	0.059616957
38	0xbe47b27b	-0.19501679
39	0x3c40b260	0.011761278
40	0x3dccacfe	0.09993933
41	0xbda5ea74	-0.08101359
42	0xbd98e10c	-0.07464799
43	0x3e89bfa2	0.26904017
44	0x3cd820ab	0.026382765
45	0x3dc58b5a	0.0964572
46	0x3e9147a2	0.28374964
47	0x3e43191d	0.19052549
48	0xbe24478e	-0.16042921
49	0xbdc0ff98	-0.09423751
50	0xbc5f1d49	-0.013617822
51	0xbe990f5f	-0.2989454
52	0x3e9534d6	0.29141873
53	0x3cb1ac36	0.021688562
54	0x3dcdb913	0.10045066
55	0x3d32bcbf	0.043637034
56	0x3d685f73	0.056731652
57	0x3d98910a	0.07449539
58	0x3dddcf61	0.1083057
59	0xbd18e83e	-0.03733086
60	0xbb047193	-0.0020209297
61	0xbd784608	-0.060613662
62	0x3e4039e4	0.18772084
63	0x3d3e0bb3	0.046397876
64	0xbd4c4d11	-0.049878184
65	0xbd84a5ef	-0.06476962
66	0xbde0f66f	-0.109845035
67	0xbdde26c5	-0.108472385
68	0x3e07aa1c	0.13248485
69	0xbd904bb8	-0.07045692
70	0x3da8d9fc	0.08244702
71	0x3da09729	0.078413315
72	0xbd9b1e2d	-0.07574115
73	0x3e969c76	0.29416245
74	0xbceeb6a7	-0.02913983
75	0x3d0ee0b8	0.034882277
76	0x3e829ecd	0.2551178
77	0x3de18fb5	0.11013738
78	0xbde8a3e1	-0.113593824
79	0x3c418928	0.011812486
80	0xbdc05657	-0.09391468
81	0xbec2bcda	-0.38034707
82	0x3d0cd8d3	0.034386467
83	0x3e164688	0.14675343
84	0xbd926906	-0.07148938
85	0x3d7f96e5	0.062399764
86	0x3e6c8cb3	0.23100547
87	0x3e0740bb	0.13208286
88	0x3e68a32d	0.22718497
89	0xbdb4270b	-0.08796509
90	0x3d909a58	0.07060689
91	0xb7a0cac0	-1.91679e-05
92	0x3ea7b17c	0.32752597
93	0xbda2c8c8	-0.07948452
94	0xbe3e6f06	-0.1859704
95	0xbd4665bb	-0.04843686
96	0xbebabb68	-0.36471105
97	0x3d0036ae	0.031302147
98	0xbd04e283	-0.03244258
99	0xbcf17357	-0.029473944
100	0xbeeec6f1	-0.46636155
101	0x3d8906aa	0.06690724
102	0xbe8cd8a8	-0.27509046
103	0xbd31b3c3	-0.043384325
104	0x3db182dc	0.086675376
105	0x3dac326c	0.08408055
106	0xbd215722	-0.039389737
107	0x3e9c28d1	0.3049989
108	0x3d9d8791	0.07691873
109	0x3daa4b24	0.08315113
110	0x3ea502ff	0.32228848
111	0x3ea127b4	0.31475604
112	0xbd8f92d4	-0.07010427
113	0xbd2bd16c	-0.041947767
114	0x3ad486b2	0.0016214459
115	0xbe94cb13	-0.29061183
116	0x3eb3c38e	0.35110134
117	0x3e2fbbde	0.1716151
118	0x3dd3107a	0.10305877
119	0xbdb40fc3	-0.08792069
120	0xbc89c906	-0.016819488
121	0x3e11cfb1	0.14239384
122	0x3e1f1ae0	0.15537596
123	0x3d7fea86	0.06247952
124	0xbe047779	-0.129362
125	0xbdb9fed6	-0.09081809
126	0x3dcf1b49	0.10112626
127	0x3cc2e8ac	0.023792587
128	0xbc693665	-0.01423416
129	0x3d878e19	0.066189
130	0x3db40165	0.087893285
131	0x3d259fd0	0.040435612
132	0x3d9ee07b	0.0775766
133	0x3c9df3b2	0.019281242
134	0x3d90efc2	0.0707698
135	0x3d957ca6	0.072991654
136	0xbcd8d466	-0.026468467
137	0x3ee6463c	0.4497546
138	0x3c24ff1d	0.010070589
139	0xbe4f6c6c	-0.20256203
140	0x3e1f83fa	0.15577689
141	0x3c12b3f8	0.008954041
142	0xbe282dbd	-0.16423698
143	0xbdb3e9e1	-0.08784843
144	0x3d4e3dcb	0.0503519
145	0xbebe2226	-0.37135428
146	0xbdd4f5d3	-0.1039845
147	0xbc875fb7	-0.016525133
148	0xbcc9ebe5	-0.024648616
149	0xbe44af41	-0.19207479
150	0x3e8768ae	0.26447052
151	0x3e05e8d6	0.13077101
152	0x3dc3d842	0.09562732
153	0xbe4e6467	-0.20155488
154	0x3d566a7b	0.05234764
155	0x3c358e22	0.01108125
156	0x3eea4640	0.45756721
157	0xbd2fd4d0	-0.042927563
158	0xbcbaacaf	-0.02278742
159	0x3bc17818	0.005904209
160	0xbeb547f1	-0.3540645
161	0x3da5f4a0	0.08103299
162	0xbd1ccaa9	-0.03827921
163	0xbdbda727	-0.092603974
164	0xbf0e1fa8	-0.55517054
165	0x3db7cf2b	0.08975061
166	0xbe8c84ea	-0.27445155
167	0xbcc4de62	-0.024031822
168	0x3e30a111	0.17248942
169	0x3dec8e0b	0.1155053
170	0x3bf91dcf	0.0076024304
171	0x3e425c95	0.1898063
172	0xbda6af6f	-0.0813893
173	0x3dcbc7f2	0.09950246
174	0x3ea3a13f	0.31958959
175	0x3ec6f3ac	0.38857782
176	0x3d27cf64	0.040969267
177	0xbdbfeb48	-0.09371048
178	0x3d7a00af	0.06103581
179	0xbdaaa960	-0.08333087
180	0x3e8a10de	0.26965994
181	0x3e37c492	0.1794608
182	0xbd92e785	-0.07173065
183	0x3c4bd32b	0.012440483
184	0x3c9fb565	0.019495675
185	0x3d9f8f82	0.07791044
186	0x3df22ca8	0.11824924
187	0x3d8e7e26	0.06957655
188	0x3d048e5d	0.03236233
189	0x3d3c0cc3	0.045910608
190	0x3cebaa96	0.028767865
191	0xbdc06099	-0.093934245
192	0x3e3b2467	0.18275605
193	0x3deba078	0.11505216
194	0x3df06db4	0.11739674
195	0x3dd47fda	0.10375948
196	0x3ab2d07e	0.0013642458
197	0xbe0ad5cc	-0.1355812
198	0xbd374bea	-0.04475013
199	0x3c0b66b1	0.00850837
200	0xbd8b2248	-0.06793648
201	0x3e465ed5	0.19372113
202	0x3ce929e2	0.028462354
203	0xbe38a12a	-0.18030229
204	0x3dda0422	0.106453195
205	0xbe0c2823	-0.13687186
206	0x3d3a4e3e	0.045484774
207	0x3d46570d	0.04842286
208	0x3db7cfd1	0.08975185
209	0xbd6f4fcc	-0.05842571
210	0xbd35b94d	-0.04436617
211	0x3e2db574	0.1696375
212	0xbd7202e2	-0.05908478
213	0xbe860bb2	-0.26180798
214	0x3ebbd4b0	0.36685705
215	0xbd54ec01	-0.051982883
216	0x3d4bc779	0.04975078
217	0xbe15bcf3	-0.1462286
218	0xbd5a6f5c	-0.053328857
219	0xbe42377b	-0.18966477
220	0x3e08b55e	0.13350436
221	0xbe3dbfec	-0.18530244
222	0xbd2f4558	-0.04279074
223	0xbdbf158a	-0.0933028
224	0xbdcb47de	-0.09925817
225	0x3e4bb52f	0.19893335
226	0xbe0de1da	-0.13855687
227	0x3d38b440	0.045093775
228	0xbea67e17	-0.32518074
229	0x3d0f4998	0.034982294
230	0xbcf452d2	-0.029824648
231	0xbe1c0a59	-0.15238322
232	0x3e816564	0.25272667
233	0x3d4b6e53	0.04966576
234	0xbe7c1b93	-0.24619894
235	0x3e38b370	0.180372
236	0xbe5126f2	-0.20425013
237	0x3d5b5e9f	0.053557035
238	0x3d3d5afd	0.04622935
239	0x3e87b188	0.26502633
240	0x3cb11398	0.021615788
241	0x3bdc2fd0	0.006719567
242	0xbc390a84	-0.011294011
243	0xbdf36a26	-0.118854806
244	0x3e5b1ace	0.21396944
245	0x3db33ef6	0.08752243
246	0x3e29d81f	0.1658635
247	0xbe81a9be	-0.25324816
248	0xbe720e61	-0.23638298
249	0xbcaf56bf	-0.021403668
250	0x3d0461d5	0.032319862
251	0x3caa75ee	0.020808186
252	0x3d283fd5	0.0410765
253	0xbdb26113	-0.08709922
254	0xbcc53320	-0.02407223
255	0xbd46143f	-0.048359152

lstm2.weight_hh_l0 f4 [256, 64]
0	0xbbd2fc92	-0.0064388
1	0x3b1895cb	0.0023282643
2	0xbd4dc6f9	-0.050238583
3	0x3b17f04f	0.0023184007
4	0xbe19126a	-0.1494843
5	0x3d8efa3f	0.069813244
6	0xbd8511e7	-0.06497555
7	0xbe173281	-0.1476536
8	0x3d9c0bce	0.07619439
9	0xbdd13601	-0.102153786
10	0xbdf70c64	-0.1206291
11	0x3d3130b7	0.04325935
12	0x3e284c79	0.16435422
13	0x3e3678c8	0.17819512
14	0xbb579f29	-0.0032901263
15	0x3deacb9e	0.11464618
16	0x3ca4000f	0.02001956
17	0xbdb51a19	-0.08842868
18	0x3dd531a5	0.104098596
19	0x3dfa67de	0.12226842
20	0xbd1336d5	-0.035940964
21	0xbdd40eef	-0.10354411
22	0x3da25472	0.07926263
23	0xbdda572c	-0.10661158
24	0xbd8e9311	-0.069616444
25	0xbdbf387c	-0.093369454
26	0x3eb0e883	0.34552392
27	0xbdc23108	-0.09482008
28	0x3d952da5	0.07284097
29	0xbdadc8e3	-0.08485582
30	0xbd996c4b	-0.07491358
31	0xbda15fcc	-0.078796
32	0x3e2cbdb5	0.16869242
33	0x3d8f6447	0.07001548
34	0xbb840d73	-0.0040299236
35	0xbbf8fd7e	-0.007598578
36	0xbbff766c	-0.0077960994
37	0xbd287721	-0.041129235
38	0x3dc05fa6	0.093932435
39	0xbdad18df	-0.084520094
40	0x3e0da9a7	0.13834248
41	0xbdd89006	-0.10574345
42	0x3c17fa78	0.009276025
43	0x3c02fbea	0.007994631
44	0x3d491bdc	0.049098834
45	0xbe0b04a8	-0.13575995
46	0x3d0004de	0.03125464
47	0x3cfb29d9	0.030659603
48	0x39719903	0.00023040552
49	0xbcc4d71d	-0.024028355
50	0xbe005d9b	-0.12535708
51	0xbd941cc7	-0.07232051
52	0xbe072c8f	-0.13200592
53	0xbd982136	-0.074282095
54	0xbdf293ab	-0.11844572
55	0x3d8f0aeb	0.06984504
56	0xbe21248f	-0.15736602
57	0xbe00c01b	-0.12573282
58	0xbcf5ef0d	-0.030021215
59	0xbd12fb26	-0.035884045
60	0xbd0a6ba2	-0.033794053
61	0x3d148f55	0.036269505
62	0xbcc1745c	-0.023615055
63	0x3cc4084a	0.023929734
64	0xbe11fc60	-0.1425643
65	0xbdbc56c2	-0.09196235
66	0xbe2ad811	-0.16683985
67	0x3d07bc80	0.033138752
68	0xbc86ffeb	-0.016479453
69	0x3dad3c3d	0.08458755
70	0x3d020953	0.031747174
71	0xbe3aa9e0	-0.18228865
72	0x3d789f2c	0.060698673
73	0xbdf1aa94	-0.11800113
74	0x3d4cdd1d	0.050015558
75	0xbd3fb0c8	-0.04679945
76	0x3e2753a2	0.16340497
77	0x3d11e0e1	0.03561485
78	0x3d3e197f	0.046411034
79	0x3e0513f7	0.12995897
80	0xbd664aa1	-0.056223515
81	0x3d88a914	0.06672874
82	0x3dcf8908	0.101335585
83	0x3e062abc	0.1310224
84	0x3d49f29b	0.049303632
85	0xbc639c5f	-0.013892262
86	0x3594fac0	1.1099837e-06
87	0xbc839e0c	-0.016066574
88	0x3de9b633	0.11411705
89	0xbd99daef	-0.075124614
90	0x3e7e836b	0.2485482
91	0xbe14a0bd	-0.14514442
92	0x3dba8029	0.09106476
93	0xbd489360	-0.048968673
94	0xbe65ca71	-0.22440507
95	0xbdd36a78	-0.10323042
96	0x3d2ab5be	0.04167723
97	0xbdcba0f7	-0.09942811
98	0x3ccd5126	0.025063109
99	0xbdcd87da	-0.10035677
100	0x3e2a3a9e	0.16623923
101	0xbe3a0086	-0.18164262
102	0x3debd015	0.11514298
103	0xbdb25566	-0.08707695
104	0x3e4b9338	0.19880378
105	0x3d826a96	0.06367986
106	0xbd28d5d6	-0.041219555
107	0xbe1455ca	-0.14485851
108	0xbdf89d3e	-0.121393666
109	0xbd50d409	-0.050983462
110	0x3df1ed46	0.118128344
111	0xbd7d7906	-0.061882995
112	0x3d76272b	0.060095947
113	0xbdde232d	-0.10846553
114	0xbdb1bfd3	-0.08679166
115	0x3dda672d	0.106642105
116	0x3ba3ea02	0.005002261
117	0x3d6d3342	0.05791021
118	0xbe2d36eb	-0.16915481
119	0x3e0ca99a	0.13736573
120	0x3c4a1a5a	0.012335384
121	0x3d60339c	0.05473672
122	0xbe372119	-0.1788372
123	0xbdd47679	-0.10374159
124	0x3cf1f323	0.029534882
125	0x3da77138	0.08175892
126	0xbd536d2f	-0.051617797
127	0x3d8187d1	0.06324733
128	0xbd9d7218	-0.07687777
129	0x3dc5362f	0.09629475
130	0x3a9f45f5	0.0012151586
131	0xbc665495	-0.014058252
132	0xbd60f7a2	-0.05492366
133	0x3db74e97	0.08950537
134	0x3d53cc7e	0.05170869
135	0xbde60c61	-0.1123283
136	0xbc9a6334	-0.018846132
137	0xbdbf8d75	-0.09353153
138	0xbc6b3cf1	-0.014357791
139	0xbdcdcd56	-0.1004893
140	0xbce3abdf	-0.027791915
141	0xbbea8e8e	-0.007158107
142	0x3d62467f	0.05524301
143	0x3d6c9ddb	0.05776773
144	0xbc95426a	-0.018220145
145	0x3deae8bc	0.11470172
146	0x3e0973d6	0.13423094
147	0x3e1a41e4	0.15064198
148	0xbd51f1ff	-0.051256176
149	0xbd892b44	-0.066977054
150	0xbc9ed6b9	-0.019389497
151	0xbdf0af7f	-0.11752223
152	0x3ddbca6b	0.107319675
153	0xbcc06bd4	-0.023488916
154	0x3e3359fa	0.17514792
155	0x3d9d064b	0.07667216
156	0xbde85223	-0.11343791
157	0xbdadce01	-0.08486558
158	0xbd82f628	-0.06394607
159	0xbde15704	-0.11002925
160	0xbcce5e2d	-0.02519139
161	0x3e0ad3f6	0.13557419
162	0x3dbe2269	0.09283907
163	0x3d3f32a3	0.04667915
164	0x3d4cd5d8	0.050008625
165	0xbde801c1	-0.113284595
166	0xbc2ded81	-0.010615707
167	0x3c252f0b	0.010082017
168	0x3e39b065	0.18133695
169	0xbdef5dc6	-0.11687808
170	0xbcf40b57	-0.029790564
171	0xbdbf9c6b	-0.09356006
172	0x3c55fd90	0.013060942
173	0xbbc76780	-0.006085336
174	0x3d31776f	0.04332679
175	0x3c9b9f95	0.018996993
176	0x3d664b80	0.056224346
177	0xbd4161a3	-0.047212254
178	0x3c84e138	0.016220674
179	0x3c7d4e05	0.015460496
180	0xbc2b187f	-0.010442852
181	0x3d279cb4	0.040920928
182	0xbde5f8d2	-0.11229099
183	0x3dff6f39	0.12472386
184	0xbdd6a01a	-0.10479756
185	0xbdabab2f	-0.0838226
186	0xbe439aae	-0.19101974
187	0x3dfaf9f5	0.12254707
188	0x3e11af87	0.14227115
189	0xbe077520	-0.13228273
190	0xbcd67f0a	-0.026183624
191	0x3df39dc1	0.118953235
192	0xbb5faa21	-0.0034128504
193	0xbd1b5029	-0.037918244
194	0x3e88f600	0.26750183
195	0xbe0f38db	-0.13986532
196	0xbe29e19b	-0.16589968
197	0xbdb30088	-0.08740336
198	0xbdd73a4a	-0.10509165
199	0x3e912147	0.283457
200	0xbd9aeb45	-0.07564405
201	0x3d34747c	0.0440564
202	0xbd5fa54d	-0.054601002
203	0x3dbb3665	0.09141234
204	0x3db67ffa	0.08911128
205	0xbcf67534	-0.030085184
206	0x3db31899	0.08744926
207	0xbc1f1688	-0.009709962
208	0xbc8b6939	-0.017017948
209	0x3e09244b	0.13392751
210	0xbe6c9c06	-0.23106393
211	0xbd8c119a	-0.06839295
212	0x3d2c2599	0.042028043
213	0xbd1d9f37	-0.038481917
214	0x3d209aa5	0.03920998
215	0x3e1adae2	0.1512256
216	0xbd8c8510	-0.06861317
217	0x3bb967cf	0.005658127
218	0xbe509d0e	-0.20372412
219	0xbd28d68d	-0.041220237
220	0x3ddc0c2b	0.10744508
221	0x3ca5a1c7	0.020218743
222	0x3d2809e0	0.041025043
223	0x3dadd0ea	0.08487113
224	0x3c4319a9	0.011907973
225	0x3da724e3	0.081613325
226	0x3d4431f3	0.047899198
227	0x3de2d5be	0.11075924
228	0xbd8aaa8a	-0.06770809
229	0xbd0c57ff	-0.034263607
230	0xbe066727	-0.13125287
231	0x3d58fbef	0.052974638
232	0xbcbbbf4c	-0.022918366
233	0xbdbe6f5b	-0.09298583
234	0x3e17efb1	0.14837529
235	0x3de3babf	0.11119603
236	0x3cee1091	0.029060634
237	0x3dc42350	0.09577048
238	0xbe21201d	-0.15734906
239	0xbccc87d0	-0.024967104
240	0xbc756148	-0.014976807
241	0x3cec791a	0.02886634
242	0xbda21a43	-0.07915165
243	0xbcc4142a	-0.023935396
244	0x3b4b91f3	0.0031062334
245	0xbd86676e	-0.065626964
246	0xbcdce6a8	-0.026965454
247	0xbdbc3463	-0.091896795
248	0x3e3a802f	0.1821296
249	0x3dd11d43	0.10210659
250	0xbe1cb0fb	-0.15301888
251	0x3cdc4bc7	0.026891602
252	0x3da2cdbb	0.07949396
253	0xbd5f2355	-0.054477055
254	0x3c91e855	0.01781098
255	0xbdb483e2	-0.08814217

lstm2.bias_ih_l0 f4 [256]
0	0x3d0ee396	0.03488501
1	0x3ba96888	0.005169932
2	0xbc5fe740	-0.013665974
3	0x3de45be7	0.111503415
4	0x3de2873e	0.11060952
5	0xbcae5173	-0.021279072
6	0x3d259278	0.040422887
7	0x3d36dc8a	0.044643916
8	0x3a80bb03	0.0009821359
9	0x3c8ac115	0.016937772
10	0x3c50006f	0.012695416
11	0xbd13f981	-0.036126617
12	0x3cb27fb6	0.021789413
13	0xbd1ea5d3	-0.03873236
14	0xbcd52917	-0.02602057
15	0xbcfa3915	-0.030544797
16	0xbd60eb42	-0.05491186
17	0x3ddfd1c0	0.109286785
18	0x3d6ab7cd	0.057304192
19	0x3d918b9e	0.07106708
20	0x3dbe9e13	0.09307494
21	0x3de98aa4	0.11403397
22	0xbd757426	-0.05992522
23	0x3e48e181	0.19617273
24	0x3d0741e6	0.03302183
25	0x3c9c31cd	0.019066716
26	0xbd25eb9f	-0.04050791
27	0x3e0a4b0a	0.13505188
28	0x3e26d9ba	0.16293994
29	0xbd1ed167	-0.03877392
30	0x3d231599	0.03981552
31	0x3d9891cd	0.07449684
32	0xbdb6f21e	-0.08932899
33	0xbd978464	-0.073982984
34	0xbb275c31	-0.0025537128
35	0x3d4d8e77	0.050184693
36	0x3d95bf00	0.07311821
37	0x3d5ab4a3	0.053394925
38	0x3ca3d316	0.019998115
39	0x3d3120d2	0.04324419
40	0xbc89918f	-0.01679304
41	0x3dc95a60	0.09831691
42	0x3dc1820a	0.09448631
43	0x3e24fb02	0.16111377
44	0xbbf540e5	-0.0074845427
45	0x3d7a1c8e	0.061062388
46	0xbd326f90	-0.043563426
47	0x3debe48a	0.115182
48	0x3e21dcf6	0.15806946
49	0x3d72562e	0.05916422
50	0xbd922d4f	-0.07137548
51	0x3d9b8222	0.0759318
52	0xbd58f436	-0.052967273
53	0xbd5dea20	-0.054178357
54	0xbd567b74	-0.052363828
55	0xbd8d2673	-0.06892099
56	0xbcf22b8f	-0.029561786
57	0xbd8c1208	-0.06839377
58	0xbe08e514	-0.13368636
59	0xbcba1da3	-0.02271921
60	0x3c06c169	0.0082248235
61	0x3df03aec	0.117299885
62	0x3e413d25	0.18870981
63	0x3e2d54fc	0.1692695
64	0x3d1a38b6	0.03765174
65	0x3d236c1a	0.039898016
66	0x3da35466	0.07975082
67	0xbdc399c5	-0.095508136
68	0xbdd9709b	-0.10617181
69	0xbb94a39f	-0.0045361067
70	0xbdb2ca6d	-0.08730016
71	0xbdb0c3ce	-0.08631097
72	0x3e0ae1da	0.13562718
73	0x3ddad85e	0.106858
74	0xbc43a290	-0.011940613
75	0x3de75e9b	0.112973414
76	0x3d8535d1	0.06504405
77	0x3a0ce3ff	0.000537455
78	0xbb958b55	-0.004563729
79	0x3d608c90	0.05482155
80	0xbe26462b	-0.16237704
81	0xbdb67f62	-0.08911015
82	0x3d6ff600	0.058584213
83	0xbe126223	-0.14295249
84	0x3d98b9d2	0.074573174
85	0x3d6a4394	0.057193354
86	0x3b7a2637	0.003816975
87	0x3d29377b	0.041312676
88	0xbe0059ae	-0.1253421
89	0xbcb94538	-0.022616014
90	0xbde46a34	-0.11153069
91	0x3d56b801	0.052421574
92	0x3dffeb50	0.12496054
93	0x3dc43a41	0.095814236
94	0x3b5fcccb	0.0034149166
95	0x3cc7cc62	0.02438945
96	0xbcf7da33	-0.030255413
97	0x3d6062c8	0.054781705
98	0xbdf4ac70	-0.11946952
99	0xbcef1058	-0.029182598
100	0x3d0c58d3	0.034264397
101	0x3d9178c1	0.0710311
102	0xbd23b7cb	-0.0399702
103	0x3c8a0b5a	0.016851116
104	0xbe3398f3	-0.17538814
105	0xbd31ea41	-0.043436293
106	0x3c523711	0.012830512
107	0xbd7b96cb	-0.061423104
108	0x3d009973	0.03139634
109	0xbda1ea1f	-0.07905983
110	0x3d557a16	0.052118383
111	0x3d711ea1	0.0588671
112	0x3dc4e12a	0.09613259
113	0xbc940395	-0.018068114
114	0xbdcfdce4	-0.101495534
115	0xbc72c59f	-0.014817624
116	0xbc6ce899	-0.0144597525
117	0xbdb24af7	-0.08705705
118	0xbe19c406	-0.15016183
119	0x3de69ec6	0.112607524
120	0x3cb6f25c	0.022332363
121	0xbdefefd3	-0.11715665
122	0xbe4fa083	-0.20276074
123	0xbda41c83	-0.08013251
124	0x3d8f7f1f	0.07006668
125	0xbd2393fa	-0.039936043
126	0x3daaa161	0.08331562
127	0x3dc03476	0.09385006
128	0xbe0323fc	-0.12806696
129	0xbe27da1b	-0.16391794
130	0x3cc4a34d	0.02400365
131	0x3e10cb65	0.14140089
132	0x3d8f6a36	0.0700268
133	0x3bc4d4c4	0.006006809
134	0xbe2a4fa5	-0.16631944
135	0xbdb7b768	-0.08970529
136	0xbe2cc589	-0.16872229
137	0xbd8b14bb	-0.067910634
138	0x3e10cff7	0.14141832
139	0x3db99c9f	0.09063076
140	0xbe01abbf	-0.12663172
141	0x3de2fcdd	0.11083386
142	0xbdb1f0a0	-0.08688474
143	0x3d1585e1	0.03650463
144	0xbe230879	-0.15921201
145	0xbdfbd9b8	-0.12297386
146	0x3d583d52	0.052792855
147	0xbd5ef44f	-0.05443221
148	0xbe37b158	-0.17938745
149	0x3da04650	0.07825911
150	0x3deeec6f	0.1166619
151	0xbdb8f594	-0.09031215
152	0x3e3062fb	0.17225258
153	0xbdea548d	-0.11441908
154	0xbdb17686	-0.08665185
155	0xbe438260	-0.19092703
156	0xbe1f320a	-0.15546432
157	0x3e3c9f88	0.18420231
158	0xbdbe69c4	-0.09297517
159	0xbe334005	-0.1750489
160	0x3e399b27	0.18125592
161	0x3d587244	0.052843347
162	0xbda3c110	-0.07995808
163	0x3df21a88	0.11821467
164	0x3d3ff12f	0.04686087
165	0xbccd7cb9	-0.025083886
166	0x3dbdc38f	0.092658155
167	0xbd9481ce	-0.07251321
168	0x3da52f9d	0.08065722
169	0x3e4284ad	0.18995924
170	0xbe0ecbe6	-0.13944969
171	0xbe304219	-0.17212714
172	0x3e2e93d4	0.1704858
173	0xbdf21656	-0.118206665
174	0x3da6fa80	0.08153248
175	0x3e05a5c4	0.13051516
176	0x3d2632d3	0.040575814
177	0xbdccc4d0	-0.099984765
178	0x3d3fca11	0.046823565
179	0x3d44852e	0.047978573
180	0x3d89b168	0.06723291
181	0x3dfe8a93	0.12428775
182	0xbd9fb0e7	-0.07797413
183	0x3d656e55	0.056013424
184	0xbe2a74e4	-0.16646153
185	0x3e051c79	0.12999143
186	0x3e138f63	0.14410166
187	0xbdcd95d8	-0.10038346
188	0xbda0fa11	-0.078601964
189	0x3e2a7a2b	0.16648166
190	0xbcc732d5	-0.02431623
191	0xbd602ba2	-0.05472911
192	0xbd11d118	-0.035599798
193	0x3d78932b	0.060687225
194	0x3d2b0875	0.041756112
195	0x3d4f4d3e	0.050610773
196	0x3e3d3999	0.18479003
197	0xbbf20fb7	-0.0073871273
198	0xbceccae4	-0.02890534
199	0xbd8ff752	-0.070295945
200	0x3e34864f	0.1762936
201	0x3cf074c8	0.02935256
202	0x3dda3c50	0.10656035
203	0xbd47b806	-0.048759483
204	0x3e238bec	0.15971345
205	0x3da8c91a	0.08241482
206	0x3dfe4e4c	0.12417278
207	0xbc12d5ce	-0.008962108
208	0x3db31d8e	0.087458715
209	0x3deeba63	0.11656644
210	0x3bc87a34	0.0061180834
211	0x3d8b9763	0.06815984
212	0x3cb52d16	0.022116225
213	0x3e112dc0	0.14177608
214	0x3cdda637	0.027056796
215	0x3cfa1176	0.030525904
216	0x3e0ab3fe	0.13545224
217	0xbd34c56c	-0.04413359
218	0x3e148fcd	0.1450798
219	0x3dc34a3c	0.095356435
220	0x3e34d953	0.17661028
221	0x3d801d19	0.0625555
222	0xbd3c853a	-0.046025492
223	0x3cc5ee07	0.024161352
224	0x3c861d8e	0.016371515
225	0x3e0c9d4b	0.13731878
226	0xbcd0d332	-0.02549133
227	0x3d25091d	0.040291894
228	0xbd5c2050	-0.053741753
229	0x3dd39439	0.103310056
230	0x3dd0e940	0.10200739
231	0xbd21663d	-0.039404143
232	0xbc4fd97a	-0.012686128
233	0x3d8c93ba	0.06864114
234	0x3dc22929	0.09480507
235	0x3e231cb6	0.15928921
236	0x3e395941	0.18100454
237	0x3c443f17	0.011977932
238	0x3d33fc17	0.043941583
239	0x3e2f8e3e	0.17144105
240	0x3d3bdd91	0.0458656
241	0x3d01a9e4	0.03165616
242	0x3e01d682	0.12679484
243	0xbb42917c	-0.0029688766
244	0x3d8cce86	0.06875329
245	0x3dd617ed	0.10453782
246	0x3da45aac	0.08025107
247	0xbd4202e7	-0.04736605
248	0x3e044625	0.12917383
249	0x3dbf838a	0.09351261
250	0x3d0a37ff	0.03374481
251	0x3e095bf6	0.13413987
252	0x3d5ef87e	0.0544362
253	0x3de6977f	0.11259364
254	0x3dd0be44	0.1019254
255	0x3dd118e2	0.10209824
